hw1/model.npy (npy, 1384 bytes, 1 tensors)

array f8 [163]
000000 fd c0 72 6e 95 02 b6 3f c0 25 c1 1c 54 90 84 3f
       0.08597692438593536 0.010040909888760718
000010 e2 4d a7 1e 40 31 a5 bf 6f 98 b2 e0 38 50 16 3f
       -0.04139137624920487 8.511874345859688e-05
000020 18 54 34 eb 12 46 ad bf 83 68 ed 0d d0 24 89 bf
       -0.05717524644038735 -0.0122772459268854
000030 ba 19 d2 2f df 65 80 3f 70 cb 26 8f ea 26 47 3f
       0.008006805083152869 0.0007065434750102972
000040 16 c4 a7 18 3c f0 97 bf c9 39 b8 21 0b 83 b9 3f
       -0.023377360348551056 0.09965581486924359
000050 f5 ce 33 25 9b 72 a0 bf dc 26 ed 95 0d c7 93 3f
       -0.032124374667459245 0.019314014697818446
000060 02 67 54 64 73 10 b0 3f 6e fd 21 77 c7 16 8e bf
       0.06275101851897705 -0.014691885302680698
000070 60 42 62 36 b0 32 a1 3f 4e 35 04 b5 9a 94 c2 3f
       0.03358984626641326 0.14516004408543853
000080 e5 f9 a5 c8 28 bd b8 3f 5d 45 33 79 36 63 c3 3f
       0.09663634203568668 0.15146523397428782
000090 7c ec 95 54 2c 76 d5 3f 5f fd f2 9c 45 d4 bf 3f
       0.3353377176314962 0.12433276254431778
0000a0 e8 c1 b6 51 cb b9 96 3f 02 b2 75 03 5c b4 b5 3f
       0.022193123686237742 0.08478331646410456
0000b0 a4 d6 5a 00 0e d7 d8 bf ec c3 c1 56 34 75 df 3f
       -0.38812589678432574 0.4915285918460188
0000c0 76 ff d8 41 3b db c1 bf 70 c9 81 32 c3 42 dc bf
       -0.13950291362015904 -0.4415748589737154
0000d0 58 86 29 1a 3c b9 d1 3f 3f c3 85 74 43 45 f2 3f
       0.2769308333864493 1.141910033384377
0000e0 dd 47 fd 24 b8 bc d3 bf 0d 06 e3 f2 f4 c0 c0 3f
       -0.30839351284259725 0.1308885751696355
0000f0 75 11 f2 c4 9e 89 d3 bf ff b7 f4 ae 56 d6 6c bf
       -0.3052746699616116 -0.0035201733623102523
000100 bf 73 21 fb 0a 77 e1 3f 41 5a 7b 87 e3 50 db bf
       0.5457816033264108 -0.4268120596947576
000110 cd 63 8c a7 b4 28 b5 bf cb 3c dc ea 44 7e c3 bf
       -0.08265236940896088 -0.1522909304407903
000120 45 c5 ef 79 f4 c8 d0 3f 20 22 7f f0 75 12 9d 3f
       0.2622653189456126 0.028390734485386315
000130 94 c7 d1 58 b4 80 95 3f 02 fe fd 70 e0 64 ba 3f
       0.020998781128987412 0.10310175665471635
000140 f0 56 c8 c7 f5 2a a9 bf 62 c5 15 61 7b b0 8e bf
       -0.04915588439705043 -0.014985050106335055
000150 17 e6 14 00 ca 4d b8 bf 14 36 58 15 26 ed a8 3f
       -0.09493696691506447 0.04868430147699257
000160 e9 2b e3 29 fe bd b4 3f b9 6d a4 0e 82 96 c4 bf
       0.08102406046525314 -0.1608431407447435
000170 59 8c ae 43 d4 91 95 3f f7 7a a9 12 d4 11 a3 bf
       0.021064106589289675 -0.037245394971923966
000180 00 69 20 f9 84 fa 94 bf 76 84 dc b4 1e ea b2 bf
       -0.02048690577076062 -0.07388488689004355
000190 25 97 15 1c d2 36 93 bf a8 5c 40 e7 c0 f8 85 bf
       -0.018763812030918054 -0.01072836595271405
0001a0 42 8b 4a f8 60 cc a7 bf 69 99 2c cb 51 a6 b9 bf
       -0.04648116141222271 -0.10019408426578526
0001b0 ae 45 51 f9 cc 7d c3 3f 4b 6f d5 6c 74 eb 7d 3f
       0.15227663205818714 0.007304625306769295
0001c0 c6 a1 a4 19 58 8e 9f bf 3e 16 e5 fa 21 da 80 3f
       -0.030816437306528298 0.008228555173114601
0001d0 a1 66 11 0b dc 3f a0 3f a9 ff a9 dc 95 b7 9d 3f
       0.031737209654875594 0.029020635216965882
0001e0 d5 83 c6 bd 82 b3 7d 3f 85 8b 28 99 6f f4 94 bf
       0.0072512728769717665 -0.020463699076696002
0001f0 49 b3 31 0d 44 42 93 3f 29 f3 5c 4a 58 cc bf 3f
       0.01880747156649257 0.12421180549149526
000200 c2 ff 8d a2 91 08 66 3f 29 06 62 66 aa 53 87 3f
       0.002689632838553253 0.011390048264959667
000210 59 b7 01 3b 2f 4e 7c bf 92 70 49 0e 53 02 97 bf
       -0.0069105000439842685 -0.022469804522515853
000220 53 da 92 3a 38 26 72 3f be 8f e9 c7 db 65 a1 bf
       0.0044309803426388515 -0.03398024382911967
000230 ce 94 0e c2 83 3f 96 bf b8 27 3c a0 70 a0 8c bf
       -0.021726664275452383 -0.013977889909728577
000240 25 44 15 0c 38 d0 b9 3f b7 97 31 1e 6f c8 7b 3f
       0.10083341879841663 0.006782945684880851
000250 a8 3d 27 49 b0 75 83 3f 56 8d 2c 34 1c d4 9e bf
       0.009501816971264912 -0.03010601108975427
000260 06 89 86 cf 3c cf a4 3f 39 f1 29 a4 fd e2 7a bf
       0.04064359696646318 -0.006564131532851563
000270 f7 a6 77 4e 63 53 a4 bf d9 66 d5 53 f7 b1 a3 3f
       -0.03969869931081676 0.0384671487651766
000280 33 38 f3 8b 40 bd 5e bf 24 79 3e 44 ec dd a1 3f
       -0.0018761759127303823 0.034896262484141155
000290 ca 63 0e 48 1d 44 a2 bf f6 cb 07 92 73 2e 82 bf
       -0.03567592148392114 -0.008877661603923653
0002a0 88 91 78 52 ad fc ca 3f d7 6e f1 b6 ef 05 ce bf
       0.21083609129813063 -0.23455616410034594
0002b0 28 f1 83 8a 81 21 95 bf 7e 7e c6 77 3f 47 df 3f
       -0.02063562782221698 0.48872362801373714
0002c0 10 75 40 cb 32 b0 e1 bf 64 f6 02 f7 98 ba 98 3f
       -0.5527585954438639 0.024149313045873547
0002d0 95 2c 39 1e 19 79 ee 3f 10 6f 06 43 6a e6 a0 3f
       0.9522824850368062 0.03300792759111293
0002e0 41 dc 16 9c 1d af 65 bf a0 fa 88 ef c7 b2 ab bf
       -0.002646978217593993 -0.05409836577427041
0002f0 09 20 d8 cb e1 e6 85 3f 31 34 4d fc 90 2e a9 bf
       0.010694278748829349 -0.049183398054630685
000300 3d cb ce ce 90 33 a8 3f 1b 0c 24 36 79 25 92 3f
       0.04726841473111285 0.017721074990742474
000310 53 f0 26 a7 99 ac a1 bf 6a 73 82 c2 71 2a b5 bf
       -0.03451996007376636 -0.08267889975327383
000320 6a 15 eb 24 6a c3 7c bf 9d bc 7f d0 88 a9 94 3f
       -0.007022299409702762 0.020177972532050437
000330 49 de 58 44 0a 64 64 3f 96 e2 aa 43 56 7c a1 bf
       0.0024891090895627116 -0.03415174079913645
000340 37 46 68 b7 cd 3d 99 bf ac a7 95 7c b7 f2 96 3f
       -0.024649824446959036 0.022410265902557278
000350 6c 93 dc e3 e0 02 a7 bf 93 7b 79 18 0c 31 8f 3f
       -0.04494383603586169 0.015230268952277892
000360 de f8 18 ea 54 f4 99 3f aa 73 5a 2a bb 31 d1 bf
       0.025346113956623444 -0.2686603463751519
000370 6a 97 6d 69 fd f1 d3 3f 6b ae fe d6 6e d6 aa bf
       0.31164489074432444 -0.05241724371384467
000380 05 3d 5d 90 66 82 b1 bf 29 30 89 9f 3f a2 8e bf
       -0.06839600586430457 -0.014957902008198758
000390 fd 8b f0 29 3a 4d b0 3f ec 1f 94 48 d9 52 bd bf
       0.06367839359204193 -0.11454542180956623
0003a0 40 1e c6 11 bd 95 c0 3f ac 30 7d 16 41 4f c4 3f
       0.12956965797296682 0.15866864774796363
0003b0 2c 71 f9 9a d9 17 85 bf f6 2c 9e 13 dd 5d 6d 3f
       -0.010299396554892391 0.003584796705529687
0003c0 0f b0 e1 af ef 3d 94 3f 2f e0 fd 86 8f 2e b2 bf
       0.019767518148384563 -0.07102295919128275
0003d0 d4 46 75 0d a8 4e b3 3f 0e d2 5b 93 0a 6e c0 3f
       0.07541895226065815 0.1283581943058753
0003e0 a2 f6 d0 c6 12 61 b4 3f 2e cd e2 29 8e 3e b5 3f
       0.07960622171318701 0.08298576853376424
0003f0 65 38 2d 39 ee e2 d1 3f 42 92 27 54 09 81 3f bf
       0.2794757421842234 -0.0004807136321274588
000400 93 64 8e 82 da f0 67 3f ef df 09 ee f9 b0 45 bf
       0.002922465112032821 -0.0006619663582361194
000410 8e 46 61 5d 73 6e 5d 3f 62 9e cd 00 05 4c 34 3f
       0.0017963530167616512 0.00030970689913665226
000420 2d 8e 45 63 70 b3 59 3f 6c 27 a7 5a 86 29 63 bf
       0.0015686605011858798 -0.0023391365150233125
000430 ae 1e 4d 46 a9 b9 50 3f 74 ab 9b 9d 88 34 32 3f
       0.0010208275864033545 0.00027778945296457543
000440 6d 4b cb 6d a0 23 60 bf 46 0a 97 8e 00 77 4c bf
       -0.0019701131226183472 -0.000868678352326243
000450 b5 bc 57 80 ab 77 50 3f 34 f0 99 8a 5b e9 60 bf
       0.0010050940339814522 -0.0020643985670272483
000460 e8 aa 22 ab c4 ce 42 3f 51 bb 23 cc 8d ab f7 3e
       0.0005739651008032894 2.2573597342419417e-05
000470 c0 bc fd ed 76 87 10 bf 26 90 ed 49 11 38 63 bf
       -6.30537356280823e-05 -0.0023460710212237666
000480 85 f3 cd 6d a5 2d 41 3f 3d fc 28 38 4e 9c bf bf
       0.0005242402800004076 -0.12347878333183444
000490 e9 86 92 6e b3 0b b4 bf 0f 2e 5c 0e e1 8e c4 3f
       -0.07830354165573862 0.16061032487083124
0004a0 1b 0f 01 cd 59 41 a5 3f 75 fe 2a 7a ca 07 b3 bf
       0.04151421191684631 -0.07433763010612345
0004b0 96 56 45 5b c4 0e aa bf b4 92 48 8d 29 d1 a9 bf
       -0.05089391340395115 -0.05042390679981193
0004c0 89 63 fd e0 ff 4e b4 bf 74 aa 20 36 c8 b4 b3 bf
       -0.07933043711581268 -0.07697726556276924
0004d0 ff 7f b3 22 8c e8 a0 bf a1 48 e8 ff 21 05 bc 3f
       -0.03302419589613236 0.10945332048166502
0004e0 84 93 a4 8b 07 ad b5 bf cb bf 7f 91 2c 88 c2 bf
       -0.08467147025346661 -0.14478070358700132
0004f0 6a 8a ce 1b b5 7e aa bf 39 e1 d9 61 53 01 d2 3f
       -0.05174795116842719 0.2813309150292472
000500 d8 f8 50 f3 7f b8 91 bf c4 dd f2 6b 3f f1 c8 bf
       -0.017305373407219132 -0.19486229678089562
000510 4d 45 3e 27 e2 48 bd 3f
       0.11439336259924922
