hw1/model_best.npy (npy, 1528 bytes, 1 tensors)

array f8 [181]
0.10636676801278401 -0.008926116994272525 -0.04618605203366745 0.01673933213428401 -0.03767136785845598 0.02225785945282174 0.07023741978731017 -0.00932799809996014
-0.10474150823800792 0.07874245689288736 0.04313788822039541 0.0721677388833407 0.12213378941993056 0.0029672839846633784 0.03377349041721399 0.14458684252235388
0.06064888037745301 0.11295225334977176 0.3160121922388987 -0.09399759320215559 0.19481310913673638 0.11916311941226133 -0.3943785249670383 0.5307901605252536
-0.10708860382317809 -0.48493572830612625 0.2509509842317483 1.1800878204050629 -0.48158278190589027 -0.07501312304188532 -0.366298052593837 -0.05962395711525737
0.6699845108737139 -0.2671521721202093 -0.04841885802226332 -0.3891751373211866 0.3022121629518452 0.018506796966622573 0.02107787866112999 0.10049816269551903
-0.07176060743577102 0.007805039340047741 -0.08684593529988828 0.004309745419520729 0.10708893219149178 -0.13044577742425068 -0.0038215912959828993 0.011666878826784683
-0.013489750785793748 -0.07680304928635044 -0.016304423233666602 -0.0023276105857935477 -0.07854999094176522 -0.09015888642572006 0.14930045817584991 -0.009804174333927341
-0.018096700317539963 -0.014610762030134712 0.03725869956432472 0.032628768453829796 -0.007937040083615097 0.011711622941670649 0.01055458962479552 0.11000153030191602
0.0028172087601751397 0.008058209826073802 -0.0027372957216204403 -0.027383845201977598 0.010703095474760935 -0.0361836726373091 -0.02022481297330804 -0.0069465038765172795
0.09096516785511703 -0.007470734519167785 0.005561334493599699 -0.00681479780122008 0.012157360070583316 0.023073494421084015 -0.016124412319129606 -0.0075357804023836825
0.046745418925988616 0.012075890240922397 -0.012331112699802024 -0.017305009791884204 0.20362098277691568 -0.2606073180739738 -0.02501710999048847 0.5129434498013222
-0.5304104883693898 -0.0341783145514546 0.9676191501452351 0.03569046918832157 -0.006012795544428907 -0.042884859530747915 0.00861723638692706 -0.03932076009369301
0.046453689578452244 0.005089433612548837 -0.032673860284612416 -0.07594005554977491 -0.00303521475026364 0.009423677609058705 0.015662744481964863 -0.04269124483943953
-0.02060470678173908 0.04588728443917927 -0.049112331637720094 0.013657871182556857 0.006285161873826807 -0.004482785565775319 -0.013027083599754085 -0.004471099829811771
-0.023790101294497462 -0.02950394824051324 0.06534792026841038 -0.017813097309765758 0.06162854456491698 0.04482527284340637 0.06576780661542946 0.011620471350531434
0.06916079375555519 -0.07933347909638946 0.08536104107152326 0.1537478685681173 0.04732533367067204 0.004774957271938055 0.2339120329587676 -0.00047794928630912504
0.0025935434883248413 -0.0002442319051510967 0.001632179307774524 -0.0006791384075846762 0.0020664626528423113 -0.002433643831072917 0.000903150204327218 0.0009429385224709999
-0.0022221305610383452 -0.00013977844793963692 0.0010895891095184915 -0.001632533294243655 0.0006373818813939 -0.00018566672760548372 0.0004503118521932287 -0.0020343571818599113
0.00011734033480789573 -0.1274537380281821 -0.03233026636737262 0.19628926505886957 -2.3761105253272337e-05 -0.04157158412214976 -0.05234845383565838 -0.0974700098105202
-0.07503534078114965 -0.1350610301002802 -0.06163684196285228 0.12533192145803393 -0.0970243776574511 -0.1422397395636078 -0.09479064252378007 0.3067758807900465
0.047668833547785 -0.25034016359544603 0.15092234499600818 -0.00046326320731862874 5.318951071808755e-06 0.00041527240008720133 0.00012050681037853972 1.7145344647766356e-05
0.00028589679385963206 -0.0009880856180369724 0.0007799535122591145 0.00014667822218898473 8.6958653018581e-05 -3.1555225650001504e-05 0.0001097944554201496 1.1528170617641469e-05
-0.0004887219118804912 0.0002796740846677856 0.00013979368880813608 -0.0007035329357126144 0.0005466267568113811
00000000: 2102 ff3d da3a bb3f 99bb 9024 db47 82bf
00000010: 622b 08be b2a5 a7bf 1c66 4b90 1d24 913f
00000020: e732 e559 a949 a3bf 3720 b7a9 c3ca 963f
00000030: b321 f15c 14fb b13f 973a 36b6 8e1a 83bf
00000040: 437c 6ae8 56d0 babf 4e61 2935 7728 b43f
00000050: 5c0d 4056 2b16 a63f 0789 54be 9579 b23f
00000060: 1e8f 4bf7 2844 bf3f dda0 8175 d84e 683f
00000070: be9d a049 c24a a13f 6c5f 0858 d281 c23f
00000080: e535 85bb 5e0d af3f 1f93 255a 70ea bc3f
00000090: d769 b333 8b39 d43f 76ba b4ec 3910 b8bf
000000a0: ae84 49ce a2ef c83f 61d7 c364 7981 be3f
000000b0: fe99 be6c 7f3d d9bf 64d3 8fa5 3bfc e03f
000000c0: b8e1 31a3 286a bbbf f926 6fdd 2f09 dfbf
000000d0: e328 8bb7 940f d03f 3ec3 30c4 a3e1 f23f
000000e0: 598f a696 40d2 debf 3e58 3c5e 0f34 b3bf
000000f0: 3ba8 1e63 6d71 d7bf 717c bc03 0887 aebf
00000100: dcee 605b 8370 e53f 45f2 936c 0519 d1bf
00000110: 413a 6e47 5bca a8bf d67d cdd5 3ee8 d8bf
00000120: e738 15af 7157 d33f b6c3 e61e 72f3 923f
00000130: 630e 137e 7095 953f f0d8 1562 3fba b93f
00000140: 2de6 1336 e75e b2bf 121b 5a4b 2df8 7f3f
00000150: 314f e703 893b b6bf 4247 187a 18a7 713f
00000160: 2ba9 8625 2e6a bb3f 301f f87d 72b2 c0bf
00000170: d54d 5134 754e 6fbf 1d3a 0ff8 cde4 873f
00000180: ca3e a6b3 83a0 8bbf dbfe ea58 5da9 b3bf
00000190: f163 4652 1bb2 90bf e376 006b 5a11 63bf
000001a0: 9b2b 322a da1b b4bf 3c6a a41c a714 b7bf
000001b0: d050 9204 471c c33f 472b 0701 3614 84bf
000001c0: 210d 1e00 f187 92bf d768 b648 3fec 8dbf
000001d0: 4293 3d80 9213 a33f 42fe d5ca b7b4 a03f
000001e0: d278 b07c 4b41 80bf d8f5 236c 43fc 873f
000001f0: ceee 160a a59d 853f 551c 286f 0f29 bc3f
00000200: 50eb b56f 1d14 673f 9f9d 569d d280 803f
00000210: 56a9 5273 866c 66bf 6a2b 53be 820a 9cbf
00000220: 1892 3d28 81eb 853f 29b9 4095 aa86 a2bf
00000230: 04fd 2639 d0b5 94bf edf2 89ef ef73 7cbf
00000240: fb4b 0345 7e49 b73f f0a3 fd06 a299 7ebf
00000250: 4aa2 5a5c 7bc7 763f 0724 f65a d5e9 7bbf
00000260: fc53 453f f5e5 883f 4ca0 c5ff 93a0 973f
00000270: 15c0 4ffe ea82 90bf 0a99 0ca6 d6dd 7ebf
00000280: 02c5 0cfb 03ef a73f 8f20 3d8d 3ebb 883f
00000290: fec9 26ee 0d41 89bf 1fd1 738c 67b8 91bf
000002a0: 9d32 e79a 4010 ca3f 9376 0e51 caad d0bf
000002b0: a692 ffd4 159e 99bf d702 b361 086a e03f
000002c0: b50f a06a 1ff9 e0bf 5138 76ee d17f a1bf
000002d0: 5a6d 9b6f bcf6 ee3f 66ae e26b 0546 a23f
000002e0: 01a1 8883 dfa0 78bf 0c32 5b1a 01f5 a5bf
000002f0: 18c4 b5e3 e9a5 813f 1003 50c5 d921 a4bf
00000300: c735 092b c7c8 a73f d2a9 bc6e a8d8 743f
00000310: 0485 b6d2 a0ba a0bf d1ee 0ab7 ce70 b3bf
00000320: 86c9 d682 4edd 68bf 3c94 1c99 b84c 833f
00000330: 1038 43fd e409 903f 4f64 d278 a0db a5bf
00000340: 9dbf 1577 6619 95bf 77e2 efc3 897e a73f
00000350: 8eba 6d64 4025 a9bf a61a 7f70 a8f8 8b3f
00000360: a8a1 2b4b 78be 793f 9157 6696 8a5c 72bf
00000370: 6684 2f90 f1ad 8abf 9434 bdb8 4950 72bf
00000380: 4813 1dac 6e5c 98bf 75fb 2e73 4836 9ebf
00000390: 9e18 6a2c a4ba b03f dd2b 8bb9 983d 92bf
000003a0: 4413 d0ce c68d af3f 381d cb91 56f3 a63f
000003b0: effc 8ab2 28d6 b03f 722d 5143 79cc 873f
000003c0: 6173 5893 85b4 b13f 8a67 32ea 324f b4bf
000003d0: 5c34 c19f 38da b53f e935 aa99 02ae c33f
000003e0: e090 c6b0 063b a83f 4412 2ad5 e78e 733f
000003f0: a871 d959 d4f0 cd3f 52bc c88d a852 3fbf
00000400: ddc9 d10e 0e3f 653f 7267 960b 8801 30bf
00000410: b9dc e02f dbbd 5a3f b81a 01a0 0641 46bf
00000420: 5c47 65b0 afed 603f fe28 4495 b8ef 63bf
00000430: 2c9d a44b 2c98 4d3f 730d de0e f1e5 4e3f
00000440: c489 c942 2534 62bf 01ec a4b9 2f52 22bf
00000450: b779 da65 11da 513f 9d26 f046 57bf 5abf
00000460: 3192 f62a bfe2 443f fd64 c90b f155 28bf
00000470: 159f 9cad fa82 3d3f 9425 1032 5baa 60bf
00000480: 9517 1d9a 93c2 1e3f 4ec0 4a72 6750 c0bf
00000490: 070b 70b9 978d a0bf 8cea fdb2 0120 c93f
000004a0: 668c 3cb8 52ea f8be 5cbe 7ee4 de48 a5bf
000004b0: 96cd 70a2 6acd aabf 961b 7a68 cbf3 b8bf
000004c0: 3c02 b31e 8435 b3bf ca54 9f09 ae49 c1bf
000004d0: 7618 eb38 dd8e afbf ef4e e75b e00a c03f
000004e0: f118 f4f0 96d6 b8bf 2402 cf6a e934 c2bf
000004f0: 1d41 9b15 3344 b8bf 5478 cc4d 37a2 d33f
00000500: d79d 40a2 0c68 a83f 7f22 e1bf 9205 d0bf
00000510: 7f2a ff63 6c51 c33f 32ea 2a53 445c 3ebf
00000520: ceff 4323 2e4f d63e 8b1f 9760 1d37 3b3f
00000530: 8119 f33c 1397 1f3f bdd1 d61c 6bfa f13e
00000540: 894a 3161 8dbc 323f d245 91da 5430 50bf
00000550: a943 ed69 b98e 493f b635 ad55 b439 233f
00000560: c9c7 8448 b2cb 163f 2778 274c 458b 00bf
00000570: 1162 9961 2ec8 1c3f 4bbf 83b4 232d e83e
00000580: 3646 6e50 b203 40bf 6170 140c 2754 323f
00000590: 3322 aba4 b252 223f 9c71 ab79 a90d 47bf
000005a0: d473 9505 70e9 413f
