hw2/model_logistic.npy (npy, 984 bytes, 1 tensors)

array f8 [107]
000000 c8 e3 d1 ff ce 23 01 c0 65 91 73 32 b2 46 d6 3f
       -2.142484663575008 0.34806494643114255
000010 f4 75 ec d3 a5 1b b3 3f 4e 51 35 f3 f6 f2 d9 3f
       0.07464062141340105 0.4054543852883129
000020 c9 3a c5 e7 4f dd 02 40 e2 e1 74 7c 10 b2 d0 3f
       2.3580625636162478 0.2608681884189804
000030 6b 41 6f 08 0a 79 d7 3f 37 27 78 46 19 c2 c0 3f
       0.3667626459473669 0.13092342320333625
000040 95 06 cd 33 eb 59 96 3f ed a6 66 99 89 ba e2 bf
       0.021827387844729335 -0.5852706905472737
000050 eb 57 19 6d f5 f3 bf 3f e5 27 c3 d3 bf cd b4 3f
       0.12481626428174734 0.08126448554972361
000060 97 e9 ac d2 a0 16 ae bf 8e a6 f8 60 b6 73 7f bf
       -0.0587663895771186 -0.007678711335339051
000070 a2 1b 0e 29 88 09 df bf 7c 03 62 5d a3 20 c0 bf
       -0.48495677956855776 -0.12599603709898222
000080 43 bb 58 67 79 69 c9 bf 0d 8f e4 74 1f 61 ca bf
       -0.19853131815167488 -0.20608895499855642
000090 e2 8d 76 39 5d 8d b4 bf be 72 fa e9 51 96 bf bf
       -0.08028204586894774 -0.1233874508129231
0000a0 26 5a 44 66 e0 65 c2 bf df 90 14 43 a9 ba cd bf
       -0.1437340258932675 -0.2322589471378995
0000b0 a4 33 94 a5 97 14 c6 bf e0 62 88 82 89 88 9a 3f
       -0.17250342926891193 0.025911472885215114
0000c0 b5 1e fe 2e 31 bb a0 3f a0 a9 8c f0 d5 b3 d1 3f
       0.032678162561805925 0.2766013001552441
0000d0 5a 1a 11 2c 7a c6 c9 3f 10 c8 0d 88 41 88 c6 bf
       0.2013695445222819 -0.17603320258382427
0000e0 5a ff 83 b3 03 7d cf 3f a1 12 7d 42 9f b3 e8 bf
       0.24600263848696607 -0.7719265268902583
0000f0 a9 40 e9 ce c7 0c cb 3f 4b 3a d0 a0 af 82 8a bf
       0.21132752993662976 -0.01294457635415571
000100 fe ac 85 87 0d aa d7 bf 11 09 92 d5 56 e1 a5 3f
       -0.36975420221888544 0.04273482663212936
000110 07 2f bf c5 2a 02 e2 3f 36 3d f8 2d ca 5b bf bf
       0.5627645361177834 -0.12249435064608324
000120 41 29 2c 40 c0 6e e7 bf ee 10 a0 af 20 0e cb bf
       -0.7322694066399792 -0.2113686425728995
000130 ec fc 62 b9 7c e1 c4 bf 83 a7 2a e9 f5 a4 cb bf
       -0.16313132335742553 -0.21597169766510768
000140 ae dd 1f 35 14 69 9f bf e3 a7 dd fb af 99 c9 bf
       -0.030674281828366005 -0.20000266836296907
000150 76 76 4b a9 61 f3 a2 3f a1 70 f0 48 da 5a d2 bf
       0.037013103404871225 -0.286795207242685
000160 3e cd 40 39 b0 66 d1 bf 63 1b fc 86 8b 6c cd bf
       -0.27189260092855594 -0.22987503138593998
000170 f7 5b 76 b3 36 f2 dc bf 08 5f 84 78 a7 be d4 bf
       -0.45228354955310074 -0.3241366078304826
000180 7b a1 8b f4 8e 2e ab bf ce d8 aa 79 c5 12 8c bf
       -0.05308958754705181 -0.013707678580754747
000190 9d 1d 60 14 45 ca bf bf ee 92 4e b5 87 af 69 bf
       -0.12418014285514407 -0.003135457091462227
0001a0 ed 94 e0 a0 be af c5 bf f5 30 b4 4a 3b 98 c0 bf
       -0.16942580085120743 -0.1296457400097847
0001b0 88 47 bf e1 8b fa a8 bf 0e 89 60 c9 b4 3a ca 3f
       -0.04878651743605561 0.2049165709768847
0001c0 f0 5c 10 7a 1f ab b4 bf 5f 71 1d 30 c1 9e d1 bf
       -0.08073612909389616 -0.27531461428386267
0001d0 b9 f6 96 4c 75 e9 ba 3f 0a c9 3d e7 97 4f d1 3f
       0.10512478942743088 0.2704829939094827
0001e0 77 e1 f9 d6 3a 34 a3 bf 04 11 75 fd 3e 23 a9 3f
       -0.037507857076834954 0.049097031058893875
0001f0 2b 56 d2 7f 82 30 64 3f 4c 04 e3 80 b6 ba 93 bf
       0.0024645375074878926 -0.019266940704941768
000200 ce 5d fc 38 ef e7 b0 3f 64 3a ba b1 63 b1 af 3f
       0.06603903905158079 0.061900248952146325
000210 98 c5 35 3c 0c e7 b8 3f f3 78 74 3b e1 28 9c 3f
       0.09727550954791864 0.02749969411262838
000220 9c f6 c0 8d ab 79 a2 bf e9 f2 19 85 7c 4e b6 3f
       -0.03608451943771948 0.08713510751290311
000230 eb 4b bd 96 05 a2 9a bf 24 ab 1f d6 d7 a1 9d 3f
       -0.02600868923702741 0.028937694973062325
000240 0e 95 c3 d7 c7 35 a3 3f 5b 91 0c a9 59 32 b5 3f
       0.0375196886905461 0.08279953362631913
000250 7f 03 fe 91 93 53 ac 3f d8 29 bf dd 13 31 bc 3f
       0.055325137683218444 0.11012386478174763
000260 fd 9e 75 42 35 51 81 3f 3f e0 c2 49 35 16 a7 3f
       0.008455673304254225 0.04509130978971187
000270 ff a3 47 d3 6b e6 a6 3f e0 b7 70 a1 ac b3 ea bf
       0.044726724186894266 -0.8344329026347133
000280 08 1a bc 56 90 97 15 bf 99 e4 62 e5 af a6 9d 3f
       -8.236711954277148e-05 0.028956173301342678
000290 e9 cb 57 8c d6 9c 97 3f a5 73 ff aa 5a 46 a9 3f
       0.02305922729096813 0.049364884732973104
0002a0 3d e5 98 2a dd 76 a8 3f ab b9 26 b3 4a 08 a9 3f
       0.047781859826907504 0.04889138638405951
0002b0 e7 70 27 b8 d6 22 b9 3f 62 f4 e9 58 21 b5 b0 3f
       0.09818784709881677 0.06526382847546722
0002c0 b1 55 5f a4 c2 89 b2 3f 00 74 ed fb 2d cf 8f 3f
       0.07241455567358092 0.015531882525175789
0002d0 c7 9c 4f 8d ad 8c b9 3f 71 29 c8 9d 81 db 8e 3f
       0.09980282497382396 0.015067112567540094
0002e0 88 1c 73 f6 6e 05 e7 bf 19 67 31 de 1c 46 8b 3f
       -0.7194132626981551 0.01331732323722039
0002f0 55 e4 06 94 91 d6 c0 3f f6 1d 58 b4 1b bf ab 3f
       0.13154811599614172 0.054192415013002135
000300 e2 29 4f 2a 48 51 a5 3f 31 fe 09 59 f9 39 ac 3f
       0.04163575664968612 0.05512980663206369
000310 df 5c 10 da b4 00 99 3f 57 d8 67 fb 82 3f 84 3f
       0.024416757402005437 0.00988676385621205
000320 35 90 ab 1a ea 73 aa 3f 1d c7 eb 4e 1b ed 90 3f
       0.0516656072193488 0.016529490177112572
000330 ef f5 17 8e e0 db 95 3f 61 50 22 eb 62 9a dc 3f
       0.021346577332215174 0.4469229980688905
000340 b7 bb b0 d9 8b b7 76 3f 79 7a 98 12 e1 2a a6 3f
       0.005546137133065557 0.04329589225766468
000350 c8 5c a6 75 09 5c c2 3f
       0.14343374485608806
